mnist_superpixels/eval/C_state_dict.pt (torch_old, 685154 bytes, 19 tensors)

conv1.g f4 [1, 800]
-0.017308973 0.08503089 0.18562405 -0.24295272 -0.41040933 -0.10387038 0.0809646 -0.26505387
0.086378075 -0.1423812 -0.16201787 -0.11705689 0.11662623 0.06499826 -0.7212414 0.37478325
-0.01917069 0.13707756 0.12459782 -0.46471366 0.33594957 -0.040581472 -0.27702403 -0.2485601
-0.024124885 0.20457807 0.1216493 0.15837498 0.033267632 -0.2745594 -0.06669257 -0.018352523
-1.152e-42 -8.2004e-41 -2.67e-41 9.959e-42 -2.6939e-41 -1.1174e-41 -8.031e-42 -1.4162e-41
-4.0621e-41 1.1435e-41 -3.7008e-41 6.7892e-41 4.3872e-41 4.437e-42 -3.0516e-41 8.2168e-41
-6.7876e-41 8.659e-42 3.538e-42 -5.7687e-41 -1.4826e-41 5.678e-41 2.6144e-41 -6.7826e-41
-1.2109e-41 1.6256e-41 4.1015e-41 -7.1732e-41 5.8195e-41 -5.7769e-41 5.509e-42 2.8029e-41
-5.3237e-41 -3.35e-42 -1.3705e-41 5.287e-41 -2.7269e-41 -4.1197e-41 4.0849e-41 3.7574e-41
-8.5622e-41 6.8889e-41 -7.556e-42 -4.1404e-41 -1.1322e-41 -2.4448e-41 3.0124e-41 1.49e-42
4.3912e-41 -5.7963e-41 4.365e-42 -1.3961e-41 -4.4788e-41 -8.5649e-41 -4.4938e-41 4.0866e-41
-2.4859e-41 4.511e-42 -8.035e-42 -3.439e-42 -2.9986e-41 1.1967e-41 8.2405e-41 -6.6468e-41
2.428e-41 1.4463e-41 -3.1379e-41 -6.7047e-41 -2.3902e-41 -2.4865e-41 5.807e-42 -3.9124e-41
7.1892e-41 -7.1973e-41 2.695e-42 5.2619e-41 -2.8514e-41 -2.8033e-41 -4.5071e-41 -6.6801e-41
1.48e-41 -2.4526e-41 -6.23e-41 -1.4491e-41 -5.9059e-41 2.856e-41 3.828e-41 -4.524e-41
-6.714e-41 -1.4055e-41 2.6756e-41 3.142e-42 5.8416e-41 -1.1761e-41 -2.269e-42 4.568e-42
-0.74757355 -0.9489915 0.4267169 0.09942492 0.19419019 0.048748456 -0.45755133 -0.19805947
0.005527363 0.1542202 0.092112824 0.02728062 0.24739873 -0.3698154 0.19534692 -0.47629723
0.076528974 -0.15832989 0.26670787 -0.94842243 0.68628526 0.40111926 -0.54639596 0.23077855
-0.40483877 0.0684087 -0.17069997 -0.03318422 -0.5918576 0.009587299 0.1884587 0.0176001
-2.8079e-41 -8.84e-43 -8.111e-42 1.768e-42 -3.033e-41 -2.8884e-41 1.1379e-41 -8.2501e-41
-1.1512e-41 -9.6559e-41 -5.8412e-41 -1.2372e-41 -2.8421e-41 -4.3845e-41 9.81e-43 -8.2373e-41
3.7545e-41 1.0818e-41 8.2563e-41 -7.1824e-41 -5.3034e-41 -4.3711e-41 1.3984e-41 -1.816e-42
-6.7159e-41 -1.4414e-41 -1.827e-42 5.277e-41 1.841e-42 1.3838e-41 1.5372e-41 2.4238e-41
0.41400328 0.31726274 -0.18513598 -0.54312366 -0.27592942 0.155961 0.566657 -0.23113565
0.10816576 -0.9950114 -0.3576889 -0.51077497 -0.2913265 0.029311309 -0.04464467 0.28054273
0.109982304 0.5925823 -0.011110528 0.39382088 -0.91890764 -0.82804364 -0.4712999 -0.15543401
-0.075202726 -0.35122326 0.010356206 0.12610607 -0.650129 -0.8034484 -0.46968073 -0.07450227
0.031021416 0.1921866 0.14715892 0.17398775 -0.6462729 -0.5631458 0.1521322 -0.1505695
-0.09260333 -0.2242159 -0.18978275 -0.08166718 -0.57142484 0.44952306 -0.86547136 0.5733174
-0.25360072 0.28016183 -0.19729425 -0.15476765 0.033302948 -0.27885732 -0.3323693 0.0038696649
-0.42112675 -0.4369246 -0.10161801 0.33073202 0.046399463 -0.00937451 -0.71119416 -0.18065159
00000000: 8ccb 8dbc ad24 ae3d 3b14 3e3e 99c8 78be
00000010: 2c21 d2be feb9 d4bd c5d0 a53d 24b5 87be
00000020: fde6 b03d 61cc 11be 03e8 25be 86bb efbd
00000030: bcd9 ee3d cf1d 853d 47a3 38bf 97e3 bf3e
00000040: da0b 9dbc 0f5e 0c3e 242d ff3d f3ee edbe
00000050: 9501 ac3e c238 26bd 18d6 8dbe 8a86 7ebe
00000060: 8da1 c5bc ea7c 513e 4523 f93d 0d2d 223e
00000070: a443 083d 0d93 8cbe 1d96 88bd 0858 96bc
00000080: 3603 0080 98e4 0080 6e4a 0080 c31b 0000
00000090: 184b 0080 261f 0080 6316 0080 7a27 0080
000000a0: 3c71 0080 e01f 0000 2a67 0080 41bd 0000
000000b0: 4c7a 0000 5e0c 0000 1155 0080 0de5 0000
000000c0: 36bd 0080 2318 0000 dd09 0000 cfa0 0080
000000d0: 5429 0080 489e 0000 e148 0000 12bd 0080
000000e0: c121 0080 512d 0000 5572 0000 f6c7 0080
000000f0: 39a2 0000 09a1 0080 5b0f 0000 224e 0000
00000100: 6794 0080 5709 0080 3426 0080 6193 0000
00000110: 044c 0080 d772 0080 df71 0000 be68 0000
00000120: aeee 0080 09c0 0000 1015 0080 6b73 0080
00000130: 901f 0080 2744 0080 f953 0000 2704 0000
00000140: 697a 0000 94a1 0080 2b0c 0000 eb26 0080
00000150: da7c 0080 c1ee 0080 457d 0080 eb71 0000
00000160: 4c45 0080 930c 0000 6616 0080 9609 0080
00000170: 9753 0080 5c21 0000 b6e5 0000 49b9 0080
00000180: af43 0000 5128 0000 7957 0080 e6ba 0080
00000190: a142 0080 5045 0080 3010 0000 106d 0080
000001a0: 68c8 0000 a2c8 0080 8307 0000 ae92 0000
000001b0: 7c4f 0080 254e 0080 a47d 0080 37ba 0080
000001c0: 4229 0000 5e44 0080 abad 0080 6528 0080
000001d0: a2a4 0080 9d4f 0000 b66a 0000 1c7e 0080
000001e0: 29bb 0080 2e27 0080 964a 0000 c208 0000
000001f0: d7a2 0000 c920 0080 5306 0080 bc0c 0000
00000200: fb60 3fbf 1bf1 72bf a37a da3e 4b9f cb3d
00000210: cbd9 463e 76ac 473d 2b44 eabe 1ad0 4abe
00000220: e21e b53b e6eb 1d3e a6a5 bc3d 9b7b df3c
00000230: 1856 7d3e 7258 bdbe 0609 483e 3bdd f3be
00000240: 39bb 9c3d 3b21 22be ef8d 883e d0cb 72bf
00000250: 64b0 2f3f 815f cd3e 9be0 0bbf 3651 6c3e
00000260: 0747 cfbe dc19 8c3d f9cb 2ebe 2dec 07bd
00000270: fb83 17bf 0c14 1d3c 51fb 403e 162e 903c
00000280: 464e 0080 7702 0080 9c16 0080 ee04 0000
00000290: 8c54 0080 8450 0080 b81f 0000 fbe5 0080
000002a0: 1720 0080 2b0d 0180 d4a2 0080 7d22 0080
000002b0: 3a4f 0080 397a 0080 bc02 0000 9fe5 0080
000002c0: a968 0000 281e 0000 27e6 0000 37c8 0080
000002d0: d693 0080 d979 0080 fb26 0000 1005 0080
000002e0: 36bb 0080 2e28 0080 1805 0080 1a93 0000
000002f0: 2205 0000 9326 0000 da2a 0000 9143 0000
00000300: 3df8 d33e 4370 a23e 4994 3dbe 270a 0bbf
00000310: 9f46 8dbe 3eb4 1f3e 6f10 113f d3ae 6cbe
00000320: 0386 dd3d 11b9 7ebf 0023 b7be 26c2 02bf
00000330: bf28 95be 451e f03c 54dd 36bd 4ca3 8f3e
00000340: 673e e13d 79b3 173f ef08 36bc e4a2 c93e
00000350: 883d 6bbf abfa 53bf 384e f1be 182a 1fbe
00000360: e303 9abd 89d3 b3be 14ad 293c f321 013e
00000370: db6e 26bf cbae 4dbf fe79 f0be a594 98bd
00000380: a020 fe3c 90cc 443e d4b0 163e d829 323e
00000390: 2472 25bf 532a 10bf 8bc8 1b3e e42e 1abe
000003a0: d1a6 bdbd da98 65be 6956 42be 1f41 a7bd
000003b0: e648 12bf e327 e63e 888f 5dbf eec4 123f
000003c0: f4d7 81be 5f71 8f3e 8107 4abe 697b 1ebe
000003d0: ac68 083d 63c6 8ebe 4f2c aabe 349a 7d3b
000003e0: ed9d d7be 95b4 dfbe 1a1d d0bd b555 a93e
000003f0: 5d0d 3e3d 8b97 19bc d210 36bf bbfc 38be

conv1.mu f4 [25, 2]
0.056959834 0.35891634 5.7837e-41 3.741e-42 -8.2563e-41 1.0472e-41 -1.446e-41 7.1793e-41
0.5601486 0.30939823 -6.7718e-41 -2.9148e-41 0.5972179 0.50109625 0.32982704 0.34959996
0.3975756 0.24224487 -5.18e-42 -2.8849e-41 0.48659202 0.1141251 0.31586674 0.48634323
-1.4461e-41 -4.366e-42 8.2378e-41 -1.4372e-41 0.17315501 0.35005057 0.5882783 0.88188535
0.56494105 0.30702326 0.44071746 0.10998214 -8.2604e-41 -3.8831e-41 0.39415178 0.66917056
0.49214178 0.51382214 0.16932605 0.53003126 0.45156392 0.06197802 0.82368165 0.38874483
-1.0734e-41 7.157e-41
00000000: b74e 693d e2c3 b73e 3aa1 0000 6e0a 0000
00000010: 27e6 0080 311d 0000 4f28 0080 21c8 0000
00000020: e665 0f3f 7269 9e3e c5bc 0080 4151 0080
00000030: 46e3 183f d847 003f 17df a83e c4fe b23e
00000040: 078f cb3e 0a0f 783e 710e 0080 6b50 0080
00000050: 9722 f93e 6cba e93d 49b9 a13e fb01 f93e
00000060: 5028 0080 2c0c 0080 a3e5 0000 1028 0080
00000070: 8c4f 313e d439 b33e 6899 163f 3dc3 613f
00000080: fa9f 103f 2732 9d3e b8a5 e13e 513e e13d
00000090: 44e6 0080 3f6c 0080 43ce c93e c34e 2b3f
000000a0: 02fa fb3e d989 033f cf63 2d3e 21b0 073f
000000b0: 6333 e73e aadc 7d3d cddc 523f 9009 c73e
000000c0: ec1d 0080 82c7 0000

conv1.sigma f4 [25, 2]
0.28667673 -0.13097097 -4.725e-42 -3.8774e-41 2.449e-41 -1.3556e-41 -9.94e-42 -2.7827e-41
0.22798939 -0.067240074 -8.2246e-41 6.7011e-41 -0.4179882 0.09475993 0.07548923 0.10953548
0.112378374 -0.09317946 2.5327e-41 -4.3714e-41 0.21852967 -0.09057862 -0.055862162 -0.11984826
3.516e-42 -6.8779e-41 5.4532e-41 7.1641e-41 -0.1451418 0.1397977 -0.41268253 0.5017769
0.2811994 0.06859722 -0.35609144 0.10503581 1.497e-41 2.5724e-41 0.10786542 -0.13981302
-0.08332856 0.26739267 0.13261172 0.16296507 0.22606914 0.17084134 0.33549604 -0.2187238
-1.3545e-41 -4.3983e-41
00000000: 4bc7 923e 411d 06be 2c0d 0080 166c 0080
00000010: 4544 0000 ca25 0080 b51b 0080 924d 0080
00000020: 0d76 693e 2ab5 89bd 45e5 0080 cdba 0000
00000030: 8d02 d6be 7f11 c23d 199a 9a3d 2354 e03d
00000040: a226 e63d dfd4 bebd 9a46 0000 db79 0080
00000050: 3ec6 5f3e 4981 b9bd b9cf 64bd 0173 f5bd
00000060: cd09 0000 babf 0080 0398 0000 b5c7 0000
00000070: 0da0 14be 2127 0f3e 204b d3be 7374 003f
00000080: 5ef9 8f3e b37c 8c3d 9e51 b6be 041d d73d
00000090: bb29 0000 b547 0000 8ce8 dc3d 252b 0fbe
000000a0: 2aa8 aabd b1e7 883e 5ecb 073e 51e0 263e
000000b0: ab7e 673e 08f1 2e3e 23c6 ab3e 22f9 5fbe
000000c0: c225 0080 9b7a 0080

conv1.root f4 [1, 32]
0.28960565 0.14308721 -0.43532223 0.3807747 -0.029939465 0.16178872 0.1376453 0.023522831
-0.35610434 -0.35639527 0.038249385 0.29831263 0.08268482 -0.39693365 0.34630415 -0.06910428
-0.15154184 -0.19266418 0.31330314 0.09011752 -0.13293642 -0.11953905 -0.17454135 0.07399064
-0.4524078 0.078555636 0.31398827 0.22690056 0.0031036471 0.27041897 0.12574036 -0.076118805
00000000: 3147 943e 7485 123e 8ee2 debe e7f4 c23e
00000010: 9c43 f5bc f1ab 253e e4f2 0c3e f4b2 c03c
00000020: 4f53 b6be 7179 b6be 63ab 1c3d 6fbc 983e
00000030: a956 a93d e33a cbbe c74e b13e 8b86 8dbd
00000040: c92d 1bbe c249 45be 4569 a03e 898f b83d
00000050: 7c20 08be e4d0 f4bd f8ba 32be 6888 973d
00000060: ffa1 e7be c7e1 a03d 12c3 a03e 9f58 683e
00000070: 8f66 4b3b 5b74 8a3e 15c2 003e 2de4 9bbd

conv1.bias f4 [32]
-0.10351316 -0.0340509 -0.0517856 -0.1473752 -0.0330798 -0.004829211 -0.006085449 0.09057271
0.07104247 -0.003571606 0.039219078 -0.102087304 -0.009609654 -0.046565443 -0.10972832 -0.05340179
0.056472786 -0.024031997 -0.11700177 0.017736292 -0.030134607 -0.04523255 0.09876516 -0.09420045
0.1494298 -0.010047529 -0.12954925 -0.17447062 0.006706322 -0.030986201 0.026655758 0.07064474
00000000: b5fe d3bd f578 0bbd 231d 54bd 86e9 16be
00000010: af7e 07bd 5c3e 9ebb 7268 c7bb 2f7e b93d
00000020: b77e 913d 9b11 6abb 2fa4 203d 2613 d1bd
00000030: cf71 1dbc 68bb 3ebd 3eb9 e0bd d6bb 5abd
00000040: 0250 673d c0de c4bc a09e efbd b34b 913c
00000050: dadc f6bc c445 39bd 6345 ca3d 2aec c0bd
00000060: 2004 193e 649e 24bc 8fa8 04be 6da8 32be
00000070: b5c0 db3b c6d6 fdbc 2d5d da3c 30ae 903d

conv2.g f4 [32, 1600]
-0.020223152 -0.01883702 0.0021915226 -0.068244874 -0.006339963 0.014881566 -0.0021389788 0.0047351033
0.003502641 -0.0012102316 0.02158221 -0.027300976 0.049670707 0.023310067 -0.020096239 -0.0117311245
-0.058320824 -0.01818469 -0.002296593 -0.01035783 0.094913766 -0.09595219 -0.041732796 0.043138742
0.014604868 -0.0060495925 0.012389896 -0.027074283 0.019603875 -0.0195501 0.06815194 0.09937052
-0.0015758977 0.015706245 -0.0030286964 -0.024771657 0.050799757 -0.07061617 0.021453558 0.025818506
0.00893248 0.0205058 -0.066114515 -0.06892037 -0.0068886457 -0.011968992 0.024490468 -0.019643111
-0.02288992 0.043099627 -0.004696474 -0.076492175 0.019252367 -0.00019150031 -0.015299526 0.026131505
0.0040073446 0.0056312704 -0.022057641 0.08029451 0.021905564 -0.046531633 0.031129358 -0.15373264
-0.007865263 -0.038453452 0.03594167 -0.024553746 -0.0017377394 0.06839568 -0.020455122 0.18283607
0.028402766 0.031114582 -0.0018954416 -0.057384647 0.03249433 -0.044210456 -0.04700386 -0.03353904
0.0120909605 0.027000554 -0.043375775 -0.021751542 0.124264024 -0.09132092 -0.07411123 0.02403681
0.025049098 0.04371561 0.029434135 0.012868573 -0.023707632 -0.06322208 -0.049164146 -0.06726057
0.090452366 -0.03236977 -0.08512821 -0.018727371 0.088127874 0.0021663671 -0.04242695 -0.10144083
0.1391337 -0.058923297 0.015349338 -0.07496381 -0.018344555 -0.001826914 0.030143559 0.037712272
-0.05383794 0.027449185 -0.08859947 -0.102502994 0.14355782 0.051626675 -0.023624776 -0.043369435
-0.1266954 0.014505435 -0.051715255 0.0110375285 0.06762565 -0.12316373 0.06497829 -0.08192332
2.8228e-41 1.795e-42 3.7555e-41 1.2341e-41 -2.5008e-41 1.6774e-41 -7.1641e-41 -5.7892e-41
-2.818e-41 6.84e-43 2.4664e-41 1.0768e-41 8.5741e-41 1.5811e-41 5.4512e-41 -1.4247e-41
-1.0801e-41 -1.4438e-41 -1.5061e-41 8.995e-42 9.924e-42 -1.324e-42 4.5122e-41 -2.942e-41
5.8343e-41 -1.051e-41 -6.8679e-41 8.551e-42 3.0735e-41 1.5906e-41 6.6927e-41 -2.7241e-41
-5.7607e-41 -3.355e-42 -2.763e-41 -2.8421e-41 -5.996e-42 -1.153e-42 1.2766e-41 2.4879e-41
-3.917e-42 -1.029e-42 -2.4304e-41 1.3527e-41 2.7976e-41 -8.5633e-41 9.6481e-41 -3.6903e-41
-1.24e-42 9.832e-42 8.691e-42 -6.681e-42 8.2232e-41 -6.8498e-41 5.3147e-41 -4.1436e-41
-5.853e-41 -5.3492e-41 -1.2533e-41 -7.187e-41 -3.383e-42 1.3658e-41 3.0232e-41 1.5019e-41
0.012358686 -0.005630098 0.031852834 0.0015668791 0.0067488397 0.020627432 0.015240927 -0.01138581
-0.02573799 -0.061857183 0.0002231725 0.025508739 -0.013367066 0.032401014 -0.019036954 -0.0044129994
-0.045851458 0.007745613 0.04062435 0.00074988074 -0.0020849085 -0.008661214 -0.016504237 0.026698006
-0.022388555 -0.020042272 0.015718639 -0.00433045 0.015927425 -0.050903335 0.094638325 0.038294233
0.0199123 0.01642248 0.0020684064 -0.018678192 -0.021539068 -0.04356647 -0.0011877008 0.07517754
-0.044240285 0.013672225 -0.038898967 -0.1045921 0.013939681 0.0059856223 0.024944494 -0.06111422
-0.028696124 0.03785216 0.03056558 0.032748025 -0.01509864 0.027790168 -0.022080164 0.016837992
0.018149205 -0.03983437 0.025736954 0.05749945 0.018655712 0.021884339 -0.010145578 -0.054258697
00000000: 06ab a5bc 1850 9abc a69f 0f3b f8c3 8bbd
00000010: 77bf cfbb d0d1 733c 1c2e 0cbb ed28 9b3b
00000020: 918c 653b a2a0 9eba 2dcd b03c 4ca6 dfbc
00000030: 8373 4b3d c1f4 be3c dea0 a4bc e733 40bc
00000040: d1e1 6ebd 0ff8 94bc 7082 16bb e3b3 29bc
00000050: 2662 c23d 9582 c4bd 02f0 2abd 40b2 303d
00000060: 4249 6f3c a93b c6bb fefe 4a3c e3ca ddbc
00000070: 4e98 a03c 8827 a0bc 3f93 8b3d c582 cb3d
00000080: 5a8e ceba 62aa 803c 187d 46bb eeed cabc
00000090: 6813 503d 369f 90bd 5fbf af3c 5581 d33c
000000a0: 8959 123c c8fb a73c 0c67 87bd 1f26 8dbd
000000b0: 26ba e1bb 9719 44bc 3ca0 c83c 97ea a0bc
000000c0: a483 bbbc 3c89 303d e1e4 99bb eea7 9cbd
000000d0: 24b7 9d3c 79cd 48b9 ddaa 7abc bd11 d63c
000000e0: 0b50 833b 8586 b83b 3ab2 b4bc 7371 a43d
000000f0: 4c73 b33c f497 3ebd ff02 ff3c 176c 1dbe
00000100: 4edd 00bc 5e81 1dbd 9337 133d f024 c9bc
00000110: dcc4 e3ba 0913 8c3d 8091 a7bc 6139 3b3e
00000120: ebac e83c 02e4 fe3c 7770 f8ba 2a0c 6bbd
00000130: c618 053d 0616 35bd 1f87 40bd 3b60 09bd
00000140: 2a19 463c 4430 dd3c ccaa 31bd 4a30 b2bc
00000150: 237e fe3d 7606 bbbd a1c7 97bd d8e8 c43c
00000160: c433 cd3c 240f 333d db1f f13c b5d6 523c
00000170: 8236 c2bc 947a 81bd 5860 49bd e9bf 89bd
00000180: 173f b93d 2a96 04bd b357 aebd 256a 99bc
00000190: 637c b43d 9cf9 0d3b e2c7 2dbd 36c0 cfbd
000001a0: 1179 0e3e 8e59 71bd ca7b 7b3c a086 99bd
000001b0: 5247 96bc 1075 efba a0ef f63c 2f78 1a3d
000001c0: 2c85 5cbd 1ddd e03c a473 b5bd 17ed d1bd
000001d0: d200 133e 7e76 533d bf88 c1bc 26a4 31bd
000001e0: 70bc 01be 34a8 6d3c 60d3 53bd c0d6 343c
000001f0: 517f 8a3d 443d fcbd 5613 853d 6ac7 a7bd
00000200: b04e 0000 0105 0000 b068 0000 6722 0000
00000210: b645 0080 c22e 0000 b5c7 0080 61a1 0080
00000220: 8e4e 0080 e801 0000 c144 0000 041e 0000
00000230: 03ef 0000 132c 0000 f597 0000 b727 0080
00000240: 1c1e 0080 3f28 0080 fc29 0080 1319 0000
00000250: aa1b 0000 b103 0080 c87d 0000 0352 0080
00000260: a3a2 0000 4c1d 0080 73bf 0080 d617 0000
00000270: ad55 0000 572c 0000 91ba 0000 f04b 0080
00000280: 96a0 0080 5a09 0080 054d 0080 3a4f 0080
00000290: b710 0080 3703 0080 9623 0000 5a45 0000
000002a0: eb0a 0080 de02 0080 c043 0080 b525 0000
000002b0: fc4d 0000 b6ee 0080 f30c 0100 df66 0080
000002c0: 7503 0080 681b 0000 3a18 0000 a012 0080
000002d0: 3be5 0000 f2be 0080 2794 0000 8273 0080
000002e0: 28a3 0080 1d95 0080 f022 0080 58c8 0080
000002f0: 6e09 0080 1326 0000 4654 0000 de29 0000
00000300: 167c 4a3c af7c b8bb 1e78 023d bd5f cd3a
00000310: 5f25 dd3b dcfa a83c 15b5 793c 8c8b 3abc
00000320: 7ad8 d2bc f55d 7dbd 6903 6a39 b4f7 d03c
00000330: 8a01 5bbc edb6 043d 63f3 9bbc ec9a 90bb
00000340: bdce 3bbd e9ce fd3b b865 263d a593 443a
00000350: f6a2 08bb c4e7 0dbc e533 87bc c7b5 da3c
00000360: 3468 b7bc b12f a4bc 60c4 803c 73e6 8dbb
00000370: 3b7a 823c 0480 50bd bdd1 c13d 6ada 1c3d
00000380: 1f1f a33c 7088 863c 1a8e 073b 0203 99bc
00000390: b372 b0bc c172 32bd a0ac 9bba aff6 993d
000003a0: 4d35 35bd 7801 603c 8654 1fbd 6234 d6bd
000003b0: 4363 643c 0a23 c43b 6558 cc3c e852 7abd
000003c0: 2214 ebbc de0a 1b3d ab64 fa3c cb22 063d
000003d0: 4960 77bc 35a8 e33c 76e1 b4bc d4ef 893c
000003e0: a4ad 943c 5d29 23bd 4ed6 d23c 8b84 6b3d
000003f0: ddd3 983c c946 b33c a339 26bc 5e3e 5ebd

conv2.mu f4 [25, 2]
0.5337135 0.1865681 0.6313588 0.48562315 -1.4712e-41 1.1463e-41 0.49396592 -0.09158357
0.5011873 -0.03455918 0.09745102 0.2959887 0.2097575 0.36622015 0.48049098 0.17744666
-0.11009307 0.5596585 -0.06925685 0.26414573 0.39033103 0.062054146 0.18211335 0.03390834
0.1320744 0.4592021 0.49700043 -0.08602717 0.12542742 0.21267934 0.37369606 0.7630331
0.45572656 0.25820503 0.114258744 0.60761154 0.94777024 0.3813991 0.7351789 0.20449461
0.94548404 0.6320595 0.21837601 0.64352053 -0.07878963 0.37701413 0.5760425 0.59062535
0.2527541 0.8091289
00000000: 73a1 083f b50b 3f3e bba0 213f 99a3 f83e
00000010: 0329 0080 f41f 0000 1ae9 fc3e 2b90 bbbd
00000020: d04d 003f ed8d 0dbd 6694 c73d d58b 973e
00000030: acca 563e 3581 bb3e ea02 f63e 94b4 353e
00000040: 7a78 e1bd c845 0f3f 89d6 8dbd 1c3e 873e
00000050: 78d9 c73e 7d2c 7e3d ec7b 3a3e 79e3 0a3d
00000060: 833e 073e 8a1c eb3e d776 fe3e 032f b0bd
00000070: 0c70 003e 9dc8 593e 1755 bf3e 2356 433f
00000080: fe54 e93e 7333 843e 7d00 ea3d 6e8c 1b3f
00000090: 12a1 723f be46 c33e af34 3c3f 0967 513e
000000a0: 3e0b 723f a7ce 213f f69d 5f3e c3bd 243f
000000b0: 755c a1bd ff07 c13e 8577 133f 3933 173f
000000c0: fc68 813e 1223 4f3f

conv2.sigma f4 [25, 2]
0.73026305 0.17842494 -0.84079856 0.20793295 -6.7985e-41 5.834e-41 -0.51913947 -0.24703637
0.6024661 0.18350361 -0.31473428 -0.26800683 0.46336347 0.18653992 -0.7648321 0.17268156
0.25759935 0.35868672 -0.2504248 0.2808202 0.42884862 -0.20043421 0.29875675 -0.27528426
0.49471748 0.20633127 -0.56476027 0.20839712 -0.3591291 -0.2141919 0.24936265 -0.60316205
0.42357165 -0.18884364 0.4848603 -0.22550972 0.31754196 0.43834323 0.53004193 0.2086076
0.3631178 -0.5251445 -0.23654905 0.43168306 -0.2455618 -0.5098903 -0.25013 -0.8280023
0.67789006 0.21158814
00000000: 85f2 3a3f 07b5 363e 933e 57bf 60ec 543e
00000010: 84bd 0080 a1a2 0000 53e6 04bf 1af7 7cbe
00000020: 383b 1a3f 5fe8 3b3e da24 a1be 3138 89be
00000030: fa3d ed3e 5204 3f3e 09cc 43bf 6fd3 303e
00000040: 10e4 833e c9a5 b73e ae37 80be aac7 8f3e
00000050: 0c92 db3e a03e 4dbe a5f6 983e 0ff2 8cbe
00000060: 9c4b fd3e 8148 533e 2194 10bf 0e66 553e
00000070: c5df b7be 1f55 5bbe ec58 7f3e d468 1abf
00000080: 62de d83e 3a60 41be 9c3f f83e 05ec 66be
00000090: dc94 a23e 866e e03e d4b0 073f 3b9d 553e
000000a0: 94ea b93e df6f 06bf ea39 72be 9005 dd3e
000000b0: 8d74 7bbe 2c88 02bf 0a11 80be f5f7 53bf
000000c0: 348a 2d3f 90aa 583e

conv2.root f4 [32, 64]
-0.16450074 0.0948679 0.16429138 0.2426532 0.03638062 0.030608384 0.12618436 0.15478705
0.14683518 -0.13977413 0.14050558 0.115829475 0.04495611 -0.13606091 -0.111730926 -0.20189658
0.034992658 0.20571615 -0.13396034 0.20400688 0.069717005 -0.19912156 0.0654966 -0.10240937
-0.27089968 0.3166256 0.14513995 -0.0021466524 -0.05982203 -0.14217691 0.04755885 -0.027559418
0.13480632 -0.0696959 -0.22321784 -0.053279825 0.21355046 -0.081245124 0.17594892 -0.17658053
0.19143145 0.081903905 -0.14257011 -0.07925242 0.011762422 0.23106575 0.039335936 -0.038506538
0.026423892 -0.10288141 -0.003065002 -0.06722443 0.30384207 -0.19923836 -0.039022062 0.3788891
-0.15114512 0.31551334 -0.06305253 -0.073298424 -0.03493647 -0.016434342 -0.15670934 -0.06326118
-0.31934628 -0.058316097 0.095155165 0.17562766 0.33057877 0.4549821 0.090995856 0.12612084
0.17934851 -0.25015295 -0.048906792 0.26954064 0.07326556 -0.13560161 -0.037993174 -0.24605381
-0.05584814 -0.036024082 -0.18038462 0.031647857 0.030602403 -0.2762384 -0.03868149 -0.067490265
-0.29757106 0.29479253 0.12697081 -0.22912855 -0.074422725 -0.0018648009 -0.22586365 0.053636063
0.3581535 -0.038465545 -0.10051976 0.06930213 0.3268929 -0.07769892 0.25726926 -0.1010777
0.020762367 -0.025746284 -0.28221774 0.028555127 -0.059415482 0.31079215 0.092867166 -0.088224255
0.193432 -0.11163385 -0.18376315 -0.1736126 0.2340562 -0.24370542 0.045359712 0.4007522
-0.12953152 0.09428512 -0.019316172 0.0030417438 0.0696597 -0.21416105 -0.075891025 -0.108424075
-0.004239551 -0.02512086 0.09804813 -0.048192468 -0.16285625 -0.050502516 -0.07767457 0.111468956
0.0038564769 -0.19291574 0.120318465 -0.10361069 -0.060399216 0.035710588 0.025309984 -0.20770021
-0.093143314 0.0257561 -0.119066365 -0.06983957 0.14365713 0.1323639 -0.095604755 -0.23597604
0.0035599861 -0.49687025 -0.09682122 -0.040647693 -0.15392223 -0.0967517 0.03825436 0.043003418
-0.0885881 0.1065298 -0.07547239 -0.06108211 -0.04754136 0.041024756 0.08501061 -0.026245872
0.06017662 -0.00030957497 0.014035902 -0.02893625 0.07213075 -0.051888514 0.026654908 0.05947035
0.2976658 0.13334271 -0.021064583 -0.0952488 -0.085372135 0.13692483 -0.052342083 0.014645467
-0.08981811 0.17434265 -0.081666216 -0.050225858 0.045303073 -0.0062546358 -0.07766834 -0.053197563
-0.107248574 -0.17828394 0.031425934 -0.08912874 0.07629244 -0.025551664 -0.104465604 0.076851375
-0.018024063 -0.057951353 -0.07744488 0.36749762 -0.16119651 -0.085854396 -0.035409104 0.09114884
-0.01710852 -0.06587958 0.29172823 0.020844383 -0.16837269 0.0979372 -0.025152931 -0.020630736
-0.044394 0.28552565 -0.062105533 0.12745506 0.15089539 -0.05063563 -0.105501294 0.07468404
0.040727053 0.055813488 0.25013974 0.032361176 0.004222323 0.0718331 0.09695585 0.07550902
0.17188853 0.21941674 0.11658502 0.16134872 0.2682029 0.024312746 -0.10172875 0.20502912
-0.03134366 0.00042850638 0.10209406 0.092113346 -0.15554799 -0.055050462 -0.19318427 0.114285626
0.07757099 0.006848532 0.20427604 -0.0011270777 0.07404036 0.07574118 -0.0032252218 0.04082636
00000000: e272 28be 1a4a c23d 003c 283e 157a 783e
00000010: d803 153d 6fbe fa3c 7936 013e 7f80 1e3e
00000020: f65b 163e f320 0fbe b2e0 0f3e 0138 ed3d
00000030: e623 383d 8d53 0bbe 2fd3 e4bd fabd 4ebe
00000040: 7654 0f3d 41a7 523e e62c 09be 2ee7 503e
00000050: cac7 8e3d 86e6 4bbe 1523 863d 01bc d1bd
00000060: 5db3 8abe c01c a23e 919f 143e daae 0cbb
00000070: f207 75bd d396 11be 12cd 423d 4ac4 e1bc
00000080: ab0a 0a3e b9bc 8ebd 3893 64be f23b 5abd
00000090: f9ac 5a3e d863 a6bd f42b 343e 87d1 34be
000000a0: 9b06 443e 3cbd a73d e6fd 11be 184f a2bd
000000b0: 2cb7 403c 809c 6c3e b81e 213d 08b9 1dbd
000000c0: eb76 d83c 7db3 d2bd 33de 48bb f6ac 89bd
000000d0: 3091 9b3e 2405 4cbe 99d5 1fbd c1fd c13e
000000e0: c9c5 1abe f78a a13e af21 81bd 7c1d 96bd
000000f0: 8b19 0fbd 50a1 86bc 6a78 20be 148f 81bd
00000100: 5b81 a3be dcdc 6ebd b6e0 c23d bdd7 333e
00000110: 9f41 a93e 6af3 e83e 095c ba3d d225 013e
00000120: 23a7 373e 0c14 80be 7d52 48bd 3b01 8a3e
00000130: 410c 963d 26db 0abe bb9e 1bbd 88f5 7bbe
00000140: 05c1 64bd fd8d 13bd bfb6 38be 2fa1 013d
00000150: e4b1 fa3c 1f6f 8dbe 7b70 1ebd 5638 8abd
00000160: 3c5b 98be 0cef 963e a304 023e ada0 6abe
00000170: f16a 98bd 566c f4ba cd48 67be 7db1 5b3d
00000180: e55f b73e 0c8e 1dbd 4edd cdbd 46ee 8d3d
00000190: 825e a73e 9d20 9fbd ccb8 833e d301 cfbd
000001a0: d715 aa3c dfe9 d2bc d87e 90be 71ec e93c
000001b0: a65d 73bd 2620 9f3e 2431 be3d ebae b4bd
000001c0: 0a13 463e 4aa0 e4bd 682c 3cbe 80c7 31be
000001d0: 6eac 6f3e ea8d 79be 1bcb 393d 642f cd3e
000001e0: e9a3 04be 8f18 c13d f33c 9ebc fe57 473b
000001f0: bfa9 8e3d 094d 5bbe c16c 9bbd 710d debd
00000200: eeeb 8abb 43ca cdbc 75cd c83d 7765 45bd
00000210: cac3 26be badb 4ebd d813 9fbd d649 e43d
00000220: f2bc 7c3b b48b 45be 8769 f63d d731 d4bd
00000230: 2b65 77bd 4445 123d e256 cf3c 5daf 54be
00000240: ecc1 bebd 75fe d23c 11d9 f3bd 0c08 8fbd
00000250: db1a 133e 678a 073e 6dcc c3bd b4a3 71be
00000260: a84e 693b c765 febe 344a c6bd 327e 26bd
00000270: ca9d 1dbe c125 c6bd 9bb0 1c3d 5a24 303d
00000280: ae6d b5bd 4c2c da3d 4591 9abd 3c31 7abd
00000290: bbba 42bd 9309 283d 0b1a ae3d 9501 d7bc
000002a0: c27b 763d 734e a2b9 d7f6 653c b70b edbc
000002b0: 49b9 933d 0d89 54bd 655b da3c 2f97 733d
000002c0: a767 983e fe8a 083e a28f acbc ce11 c3bd
000002d0: 96d7 aebd 0636 0c3e a764 56bd 8af3 6f3c
000002e0: 8ff2 b7bd e186 323e 9e40 a7bd a1b9 4dbd
000002f0: b78f 393d b0f3 ccbb 9410 9fbd b0e5 59bd
00000300: 24a5 dbbd 1190 36be 7bb8 003d 2189 b6bd
00000310: 363f 9c3d b951 d1bc 10f2 d5bd 4164 9d3d
00000320: 33a7 93bc 665e 6dbd 6c9b 9ebd a628 bc3e
00000330: b310 25be 6ed4 afbd 2309 11bd 3eac ba3d
00000340: 2b27 8cbc e0eb 86bd 675d 953e d7c1 aa3c
00000350: e469 2cbe 4c93 c83d 850d cebc ca01 a9bc
00000360: 7cd6 35bd 6b30 923e 5f62 7ebd 9483 023e
00000370: 5284 1a3e 4e67 4fbd 1011 d8bd f2f3 983d
00000380: 69d1 263d af9c 643d 5112 803e 278d 043d
00000390: 6a5b 8a3b 3b1d 933d ca90 c63d 79a4 9a3d
000003a0: 8c03 303e c8ae 603e 21c4 ee3d 9938 253e
000003b0: e451 893e 862b c73c 2a57 d0bd 27f3 513e
000003c0: 3662 00bd 27a9 e039 b116 d13d eca5 bc3d
000003d0: f947 1fbe 987c 61bd 19d2 45be 950e ea3d
000003e0: 8add 9e3d a669 e03b bd2d 513e 74ba 93ba
000003f0: 79a2 973d 311e 9b3d 3e5e 53bb 8b39 273d

conv2.bias f4 [64]
-0.04692476 -0.027676275 -0.050602127 -0.037655976 -0.047347747 -0.054272875 -0.053685214 -0.0546764
-0.024926057 -0.07006184 -0.037623506 -0.03694554 -0.028455237 -0.044398215 -0.012961647 -0.066429846
-0.06494353 -0.025056252 -0.08540223 -0.05730047 -0.10426725 -0.06252135 -0.04349237 -0.07375223
-0.03147759 -0.06506567 -0.047203444 -0.04093137 -0.057955265 -0.052107 -0.040911473 -0.046789672
-0.04769169 -0.07055253 -0.03712019 -0.071901284 -0.03657862 -0.04007382 -0.03534267 -0.027904144
-0.08739025 -0.049361918 -0.051024284 -0.020176439 -0.042396948 -0.04698991 -0.048921734 -0.024142224
-0.073917516 -0.02744957 -0.06048371 -0.047434736 -0.0561612 -0.022982994 -0.026810473 -0.04163571
-0.03343372 -0.060716946 -0.04779748 -0.02223785 -0.037240323 -0.022942847 -0.043034095 -0.031911787
00000000: 2d34 40bd 5bb9 e2bc 2d44 4fbd 273d 1abd
00000010: b6ef 41bd 3c4d 5ebd 07e5 5bbd 5cf4 5fbd
00000020: bb31 ccbc 957c 8fbd 1b1b 1abd 3554 17bd
00000030: f51a e9bc e7da 35bd 165d 54bc 5f0c 88bd
00000040: 1d01 85bd c542 cdbc 5de7 aebd e6b3 6abd
00000050: 118a d5bd 320b 80bd 0e25 32bd 690b 97bd
00000060: a5ee 00bd 2641 85bd 6658 41bd a7a7 27bd
00000070: 8062 6dbd 266e 55bd ca92 27bd 87a6 3fbd
00000080: 5d58 43bd d87d 90bd 570b 18bd fb40 93bd
00000090: 77d3 15bd 7224 24bd 7ac3 10bd 3b97 e4bc
000000a0: a9f9 b2bd b92f 4abd d7fe 50bd 0f49 a5bc
000000b0: 6ca8 2dbd 7e78 40bd 2862 48bd eac5 c5bc
000000c0: 1162 97bd ecdd e0bc c4bd 77bd ed4a 42bd
000000d0: 4909 66bd d546 bcbc a3a1 dbbc 358a 2abd
000000e0: ccf1 08bd 55b2 78bd 4ac7 43bd 272c b6bc
000000f0: 4f89 18bd a3f2 bbbc 8544 30bd efb5 02bd

conv3.g f4 [64, 1600]
0.0023043554 -0.010428707 -0.02741327 -0.010327414 0.0006437243 -0.014578413 0.0005163936 0.007279091
-0.041786775 -0.02321348 -0.0012660044 0.02647175 -0.0040984303 -0.012272365 -0.0042631053 0.026105283
-0.027772615 -0.016530093 0.0397898 -0.022925131 -0.0015906177 -0.0064007742 -0.015278422 0.0016126573
-0.016658824 0.0049970956 -0.0837058 -2.100834e-06 -0.0047810148 -0.008160064 -0.0072305943 -0.026476368
0.002914277 -0.0072561293 -0.019296646 -0.0006082128 0.0100569 -2.1038824e-05 -0.013915379 0.00782318
0.057375543 0.005485746 -0.0052588503 0.008583221 -0.03817964 0.02356346 0.015743095 -0.006564252
-4.0137114e-05 -0.01686137 0.00040555897 -0.016915383 0.012110879 -0.011851612 0.047925882 0.05891218
0.0090674125 0.015095071 -0.0069978554 -0.001741807 -0.01288627 0.00089884957 -0.0007618923 -0.007859507
0.00045454656 -0.021411277 -0.035671365 -0.016597798 0.0011975676 -0.031364296 0.00017042116 0.011886667
-0.06776493 -0.043698262 -0.004656548 0.03600965 -0.020775784 0.00292939 -0.015462888 0.038979262
-0.027870808 -0.004139488 0.060837876 -0.032387365 0.005459841 -0.026647242 -0.021938145 0.001334895
-0.041582208 0.00019500914 -0.085246496 -0.0005550032 -0.0052534756 -0.009285063 -0.018228304 -0.026561018
-0.008742679 -0.020674646 -0.054984298 0.0028174033 0.004706291 -0.0006456873 -0.028081903 -0.018389065
0.07282356 -0.004058934 -0.014709638 0.0015645331 -0.051548302 0.033370037 0.014652406 -0.004699004
-0.00022335391 -0.039656963 0.0051598647 -0.03836989 0.022118056 -0.012350795 0.030212708 0.09442703
-0.01358361 0.0135392 -0.0055348985 0.0079806745 -0.017945232 -0.0052144527 -0.0014061228 -0.03820759
-0.0003651607 -0.008945548 -0.029289244 -0.025387242 0.00085555256 -0.011237968 0.0014041606 -0.003457133
-0.03605756 -0.014421383 -0.0061207735 0.028748903 -5.7484274e-05 -0.0043756147 -0.023815341 0.018390836
-0.02690371 -0.014789543 0.03835579 -0.023653058 -0.010376645 -0.007060867 -0.02936162 0.0017324706
-0.006146409 -0.008078388 -0.17055352 -0.0009615123 -0.018127717 -0.030455582 -0.013364059 -0.033982046
-0.029241411 0.005048733 -0.041304734 -0.008842128 -0.013302825 -0.0010870231 0.010171787 -0.006504977
0.057493787 -0.003789008 -0.0061409893 0.0005123002 -0.050661407 0.010372606 0.008489057 -0.022875534
-0.001207406 -0.021977652 0.0035870222 0.008293706 0.012558523 -0.00786874 0.07139882 0.06827346
-0.01663589 0.016617939 -0.0062873736 0.008161193 0.00795299 -0.011453587 -0.0015151539 -0.02636508
0.0019394124 -0.0079871295 -0.025653657 -0.011956151 0.0006626313 -0.011108009 0.000766215 0.0040536392
-0.03478272 -0.01677272 -0.0022697248 0.024639143 -0.00059526425 -0.0121792 -0.0067780884 0.02183874
-0.026426874 -0.017502949 0.035602197 -0.020765029 -0.0047667827 -0.0036099914 -0.01715405 0.001666029
-0.009925072 0.0021657636 -0.099122636 -0.00017525833 -0.007127496 -0.012869279 -0.0069183214 -0.028334798
-0.00285229 -0.0014196737 -0.017267993 -0.0027842608 0.005108734 -0.00021632643 -0.005978483 0.008556916
0.05404824 0.0042538554 -0.0043054596 0.007344649 -0.035976738 0.017765788 0.013512386 -0.010240756
-0.0003209184 -0.012683747 0.0007217072 -0.008221873 0.01067848 -0.010337855 0.053588454 0.053557996
0.00628607 0.01472376 -0.0069962395 -0.0005846842 -0.007492538 -0.0014185561 -0.00089297956 -0.007329679
00000000: ab04 173b 2bdd 2abc cb91 e0bc 5034 29bc
00000010: 9bbf 283a 4cda 6ebc 965e 073a 7185 ee3b
00000020: 9c28 2bbd 322a bebc 0ff0 a5ba 49db d83c
00000030: 204c 86bb 0812 49bc 85b1 8bbb bfda d53c
00000040: 6583 e3bc 1e6a 87bc a1fa 223d 7ccd bbbc
00000050: 467c d0ba 96bd d1bb 5952 7abc cd5f d33a
00000060: 1678 88bc adbe a33b f26d abbd 0efc 0cb6
00000070: 0faa 9cbb cab1 05bc 9fee ecbb f8e4 d8bc
00000080: 74fd 3e3b d3c4 edbb 0014 9ebc 7870 1fba
00000090: b2c5 243c 887c b0b7 54fd 63bc cc2c 003c
000000a0: 9e02 6b3d c6c1 b33b 6f52 acbb a3a0 0c3c
000000b0: 4162 1cbd 2808 c13c aaf7 803c f018 d7bb
000000c0: e658 28b8 db20 8abc 34a1 d439 2192 8abc
000000d0: b56c 463c 432d 42bc ee4d 443d e64d 713d
000000e0: 7c8f 143c 5151 773c 444e e5bb 584d e4ba
000000f0: ef20 53bc c6a0 6b3a bab9 47ba 29c5 00bc
00000100: 3550 ee39 b466 afbc 231c 12bd 1bf8 87bc
00000110: b3f7 9c3a d977 00bd 15b3 3239 4cc0 423c
00000120: 57c8 8abd f3fc 32bd f595 98bb db7e 133d
00000130: fa31 aabc 02fb 3f3b 0e58 7dbc b8a8 1f3d
00000140: 5251 e4bc 8ba4 87bb 2331 793d 9da8 04bd
00000150: 77e8 b23b 514b dabc a0b7 b3bc a5f7 ae3a
00000160: 1b52 2abd 5e7b 4c39 b795 aebd a27d 11ba
00000170: 5925 acbb 6020 18bc 8653 95bc 7e96 d9bc
00000180: 743d 0fbc e05d a9bc 3737 61bd 2fa4 383b
00000190: 3b37 9a3b 5743 29ba 050c e6bc aaa4 96bc
000001a0: 8524 953d ce00 85bb b200 71bc 0511 cd3a
000001b0: 5024 53bd 05af 083d a510 703c 1afa 99bb
000001c0: 1c34 6ab9 576f 22bd 1514 a93b bf29 1dbd
000001d0: ed30 b53c fd5a 4abc a480 f73c f562 c13d
000001e0: ca8d 5ebc 85d3 5d3c 185e b5bb 60c1 023c
000001f0: e101 93bc 00de aabb a74d b8ba 907f 1cbd
00000200: 0a73 bfb9 5990 12bc ffef efbc e8f8 cfbc
00000210: 2947 603a 741f 38bc d00b b83a 1191 62bb
00000220: 18b1 13bd aa47 6cbc c590 c8bb d282 eb3c
00000230: 451b 71b8 5161 8fbb 6418 c3bc 61a8 963c
00000240: 2b65 dcbc d74f 72bc f61a 1d3d 0fc4 c1bc
00000250: ce02 2abc d85e e7bb c887 f0bc 1114 e33a
00000260: d167 c9bb 375b 04bc 95a5 2ebe 000e 7cba
00000270: 9480 94bc fc7d f9bc edf4 5abc c230 0bbd
00000280: af8b efbc d86f a53b 272f 29bd 93de 10bc
00000290: 18f4 59bc 717a 8eba 91a7 263c b427 d5bb
000002a0: 9b7e 6b3d 0151 78bb 5a3a c9bb e24b 063a
000002b0: 5682 4fbd ddf1 293c b015 0b3c 7965 bbbc
000002c0: d341 9eba 7a0a b4bc 3f14 6b3b 53e2 073c
000002d0: 43c2 4d3c e3eb 00bc 8b39 923d f5d2 8b3d
000002e0: fd47 88bc 5822 883c 5006 cebb 86b6 053c
000002f0: 424d 023c d3a7 3bbc 2198 c6ba 95fb d7bc
00000300: e233 fe3a 73dc 02bc 9e27 d2bc bbe3 43bc
00000310: 6fb4 2d3a 5efe 35bc d1db 483a 64d4 843b
00000320: 5378 0ebd f166 89bc aabf 14bb 07d8 c93c
00000330: 820b 1cba 448b 47bc ba1a debb 28e7 b23c
00000340: 2c7d d8bc 5862 8fbc 9cd3 113d 6c1b aabc
00000350: ac32 9cbb 9b95 6cbb a686 8cbc a85e da3a
00000360: c59c 22bc 7cef 0d3b cf00 cbbd 8dc5 37b9
00000370: c58d e9bb abd9 52bc 16b3 e2bb 611e e8bc
00000380: 7ced 3abb 5814 baba 9b75 8dbc 2578 36bb
00000390: 2b67 a73b afd5 62b9 26e7 c3bb 4f32 0c3c
000003a0: b061 5d3d ed63 8b3b d014 8dbb 62ab f03b
000003b0: 585c 13bd 8f89 913c 0e63 5d3c d8c8 27bc
000003c0: f040 a8b9 7ecf 4fbc f330 3d3a 09b5 06bc
000003d0: cbf4 2e3c 1b60 29bc 917f 5b3d a15f 5b3d
000003e0: 61fb cd3b ed3b 713c b640 e5bb 7e45 19ba
000003f0: f783 f5bb d8ee b9ba d816 6aba ce2d f0bb

conv3.mu f4 [25, 2]
0.16137269 0.51171327 0.4627128 0.11536085 0.5479635 0.6512015 0.19341373 0.6217427
0.45913276 0.9424658 -5.094e-41 1.4732e-41 0.44920534 0.09355121 0.556283 0.61169934
0.44887424 0.08370816 0.5131516 0.60198665 0.45101568 0.08941244 0.41904703 0.7103189
0.48408183 0.15981835 0.41518176 0.5523216 0.51144594 0.7713575 0.4726158 0.13970163
0.44897228 0.0850805 0.4591603 0.10208862 0.27351665 0.69477296 -1.3591e-41 2.6947e-41
0.47360644 0.13743857 0.47115076 0.12901711 0.46084216 0.9429749 0.26462668 0.6777269
0.18045536 0.5791871
00000000: e23e 253e a4ff 023f b1e8 ec3e 4f42 ec3d
00000010: 5647 0c3f 24b5 263f 400e 463e 882a 1f3f
00000020: 7313 eb3e 7045 713f 008e 0080 1129 0000
00000030: 3efe e53e c797 bf3d 9068 0e3f 5498 1c3f
00000040: d8d2 e53e 2f6f ab3d e75d 033f cc1b 1a3f
00000050: 87eb e63e df1d b73d 558d d63e 76d7 353f
00000060: 93d9 f73e 6ca7 233e b492 d43e f364 0d3f
00000070: 1fee 023f af77 453f b3fa f13e f20d 0f3e
00000080: b2df e53e af3e ae3d 0f17 eb3e d713 d13d
00000090: 600a 8c3e a4dc 313f e325 0080 1e4b 0000
000000a0: 8b7c f23e b2bc 0c3e ac3a f13e 101d 043e
000000b0: 81f3 eb3e ce66 713f 267d 873e 837f 2d3f
000000c0: 4ac9 383e 9b45 143f

conv3.sigma f4 [25, 2]
0.6139419 0.85157365 -0.7962771 -0.57288486 0.9493448 0.94840705 0.688239 0.8365785
-0.9272824 0.535156 -4.0617e-41 -4.836e-42 -0.786224 0.53140885 0.9455143 -0.97368675
-0.78235865 0.5155487 0.9526698 0.9666912 -0.7851684 0.525871 -0.9381242 -0.8569153
-0.81363076 0.654065 0.91974795 0.94289166 0.94855994 -0.8168628 -0.8058742 0.6165561
0.7829231 0.51777875 -0.79180485 -0.5508616 0.8064755 -0.81274897 -6.425e-42 2.248e-42
0.80544966 -0.61389375 0.8024915 -0.5999392 0.92784995 0.5356153 -0.79483646 -0.824505
-0.66256493 0.8517131
00000000: 4c2b 1d3f bb00 5a3f d1d8 4bbf 95a8 12bf
00000010: 4308 733f ceca 723f 6e30 303f 022a 563f
00000020: 6162 6dbf fcff 083f 3971 0080 7b0d 0080
00000030: fa45 49bf 690a 083f 3a0d 723f 8943 79bf
00000040: a848 48bf 00fb 033f 2be2 733f 1379 773f
00000050: cc00 49bf 7b9f 063f e828 70bf cd5e 5bbf
00000060: 1b4a 50bf ce70 273f 9a74 6b3f 5961 713f
00000070: d3d4 723f ec1d 51bf c64d 4ebf 9fd6 1d3f
00000080: a66d 483f 268d 043f b9b3 4abf 4405 0dbf
00000090: 2e75 4e3f 5110 50bf e911 0080 4406 0000
000000a0: f331 4e3f 2428 1dbf 1570 4d3f 9e95 19bf
000000b0: 9387 6d3f 161e 093f 677a 4bbf c212 53bf
000000c0: db9d 29bf df09 5a3f

conv3.root f4 [64, 64]
-0.0020294806 -0.014874929 -0.036568157 -0.044351067 0.00081654603 -0.014279731 0.001430252 -0.001928947
-0.0564406 -0.038900062 0.01571993 0.054347508 -0.01095035 -0.0064922124 -0.03662459 0.021861171
-0.035197034 -0.016082205 0.044921063 -0.032159027 -0.020533875 -0.008609775 -0.037986238 0.0017706081
0.0034393608 -0.0017508604 -0.21353823 -0.0015203857 -0.027685653 -0.045102835 -0.027492706 0.008702734
-0.034000847 0.072038226 -0.055588853 -0.014915748 -0.0062072813 -0.0015949709 0.02087369 -0.02586123
0.073438324 0.007560664 -0.0060356935 -0.0032578495 -0.075701 0.021063702 0.01011012 -0.032375135
-0.0015140432 -0.04078237 0.0051369783 0.0023825634 0.017138854 -0.016032528 0.08617541 0.08837903
-0.011039794 0.052894965 -0.0005591082 0.013865964 0.01547959 -0.014476149 -0.0020962828 -0.04136188
-0.0045631323 0.008072079 0.08332006 0.0027697566 0.00055044465 -0.08194265 0.0012042883 -0.06240691
0.0047512273 0.0062467153 -0.04146602 -0.07485893 -0.037848063 0.09701102 -0.020953987 -0.051242623
0.039154373 0.056467224 -0.02669864 0.045526836 0.1034731 -0.058627706 0.019945826 0.0002515052
-0.06876105 -0.008872218 0.1279755 0.0003395205 -0.02278661 0.106981754 -0.014093371 -0.05303728
-0.008790257 -0.0030703256 -0.1287521 0.010777485 -0.06902742 0.0006551237 -0.0494721 0.050076135
0.0068666507 -0.054868188 -0.051331148 -0.08708311 0.043308217 0.007825875 -0.038510285 0.046464648
-0.00039058374 -0.019337432 0.00048261767 -0.08739595 -0.029428564 0.030617371 -0.053608842 0.042177156
-0.1607754 -0.12137128 0.0016950894 0.026745131 -0.004199832 -0.0028662889 0.00077521976 -0.07676818
-0.0027598063 -0.03548579 0.003175292 0.055171557 0.0015899469 -0.032590944 0.00027768756 -0.026353082
-0.060679916 -0.059609067 0.005751103 -0.01069321 -0.021422602 0.03197937 0.004137087 0.018941045
-0.011171136 -0.019021763 -0.0045716288 -0.028401263 0.113065384 0.0003477071 0.012397691 -0.0025724724
-0.030701337 0.036117207 0.34483126 0.003247132 -0.023863465 0.13161008 0.0065991934 0.017970582
0.047230035 0.03584888 -0.020006113 -0.0065184366 -0.002193675 0.0035611398 -0.06576939 0.04873301
-0.14640462 0.041916054 0.008778607 -0.0048166434 -0.04762895 0.06940845 0.021313062 0.029338673
6.2118643e-06 -0.0543578 0.00218705 -0.11857108 0.0020079683 -0.0051064324 -0.1067474 0.010609502
-0.038337234 -0.04605193 0.007266057 0.014760695 -0.006887978 0.031667046 0.002777094 0.0019021002
-0.009000503 0.014358905 0.012794527 0.017790588 0.0018408407 -0.0035620225 0.0015549614 0.031704694
-0.03462546 0.021966271 0.019154893 0.018769417 0.0005753634 -0.012595964 -0.076283306 0.00031111145
-0.056182142 0.09769215 0.03848451 0.056949858 -0.080362715 -0.16007285 -0.043013297 -0.00011285162
-0.03075058 -0.052724924 -0.14564392 -0.0018314699 -0.0073203202 -0.12567304 -0.028678734 0.080047935
-0.099169016 0.07144896 -0.2781065 0.003728883 -0.007469756 -0.001321814 0.058217473 -0.08432844
0.12688886 -0.14578468 -0.023573393 -0.012642814 0.024895458 -0.07009106 -0.027177637 0.0061308234
-0.0019641488 0.05187736 -0.010622665 0.02003685 0.007529756 0.005484843 0.009941253 0.028017253
-0.05302051 0.06623671 0.005619779 0.0024082172 -0.1483196 -0.051776607 -8.331474e-05 -0.063141376
00000000: 0901 05bb f9b5 73bc 7ec8 15bd 77a9 35bd
00000010: 7a0d 563a 88f5 69bc 4b77 bb3a b9d4 fcba
00000020: 422e 67bd ac55 1fbd 15c7 803c 7e9b 5e3d
00000030: 1969 33bc a0bc d4bb ab03 16bd 3316 b33c
00000040: c42a 10bd d4be 83bc 26ff 373d 2fb9 03bd
00000050: a836 a8bc 0410 0dbc 7597 1bbd c013 e83a
00000060: e666 613b 207d e5ba c4a9 5abe ae47 c7ba
00000070: 06cd e2bc c0bd 38bd 6238 e1bc e995 0e3c
00000080: 7944 0bbd c788 933d 23b1 63bd 2e61 74bc
00000090: 7366 cbbb 580e d1ba 4dff aa3c eeda d3bc
000000a0: d566 963d 72bf f73b 11c7 c5bb a581 55bb
000000b0: 2009 9bbd c98d ac3c eba4 253c ca9b 04bd
000000c0: dc72 c6ba 6a0b 27bd 1954 a83b c824 1c3b
000000d0: c866 8c3c a656 83bc bc7c b03d 1100 b53d
000000e0: 41e0 34bc 64a8 583d 1e91 12ba 112e 633c
000000f0: 1b9e 7d3c 5f2d 6dbc ca61 09bb 136b 29bd
00000100: 5486 95bb c140 043c b5a3 aa3d ce84 353b
00000110: b74b 103a 8cd1 a7bd 36d9 9d3a 639e 7fbd
00000120: 2fb0 9b3b 3fb1 cc3b 46d8 29bd a44f 99bd
00000130: 9206 1bbd b7ad c63d b2a7 abbc c9e3 51bd
00000140: 5660 203d 2d4a 673d 1bb7 dabc 597a 3a3d
00000150: b4e9 d33d 9b23 70bd 6e65 a33c 75dc 8339
00000160: 98d2 8cbd c85c 11bc 020c 033e ac01 b239
00000170: fcaa babc 4019 db3d e2e7 66bc 9e3d 59bd
00000180: 0305 10bc 8437 49bb 97d7 03be 0c94 303c
00000190: 3f5e 8dbd 9bbc 2b3a 42a3 4abd a21c 4d3d
000001a0: a401 e13b 77bd 60bd 9c40 52bd a158 b2bd
000001b0: f563 313d 1938 003c f6bc 1dbd b751 3e3d
000001c0: 43c7 ccb9 8969 9ebc d907 fd39 a6fc b2bd
000001d0: 2c14 f1bc 48d1 fa3c f294 5bbd f4c1 2c3d
000001e0: 4ea2 24be 8191 f8bd c32d de3a 9b18 db3c
000001f0: bf9e 89bb 59d8 3bbb 1e38 4b3a a338 9dbd
00000200: dedd 34bb 8c59 11bd 8f18 503b 92fb 613d
00000210: c465 d03a 157e 05bd 9896 9139 6be2 d7bc
00000220: 818b 78bd a328 74bd c073 bc3b 9332 2fbc
00000230: 747e afbc cdfc 023d 6790 873b 402a 9b3c
00000240: 2407 37bc 87d3 9bbc 9acd 95bb c4a9 e8bc
00000250: d38e e73d 754c b639 af1f 4b3c ed96 28bb
00000260: 5f81 fbbc a3ef 133d b98d b03e d6cd 543b
00000270: 507d c3bc cbc4 063e 0c3e d83b 0b37 933c
00000280: 4874 413d 46d6 123d dce3 a3bc 9c98 d5bb
00000290: c2c3 0fbb 0362 693b 1ab2 86bd 449c 473d
000002a0: 18eb 15be 2bb0 2b3d 25d4 0f3c efd4 9dbb
000002b0: 9316 43bd 0426 8e3d bb98 ae3c a857 f03c
000002c0: 826f d036 49a6 5ebd 9c54 0f3b 65d5 f2bd
000002d0: 1e98 033b dc53 a7bb 619e dabd 7ad3 2d3c
000002e0: 8107 1dbd f3a0 3cbd 1b18 ee3b d8d6 713c
000002f0: 8cb4 e1bb 4eb5 013d e8ff 353b e44f f93a
00000300: d976 13bc 9d41 6b3c 23a0 513c 91bd 913c
00000310: 5d48 f13a d270 69bb d9cf cb3a c8dc 013d
00000320: 6dd3 0dbd 9cf2 b33c b9ea 9c3c 52c2 993c
00000330: fcd3 163a 4d5f 4ebc 6c3a 9cbd ac1c a339
00000340: 3f1f 66bd d212 c83d efa1 1d3d 4144 693d
00000350: 3595 a4bd 23ea 23be b62e 30bd c1aa ecb8
00000360: a4e8 fbbc 17f6 57bd ae23 15be ef0d f0ba
00000370: 4cdf efbb 6fb0 00be aaef eabc 2cf0 a33d
00000380: 2019 cbbd d553 923d fa63 8ebe 4760 743b
00000390: dbc4 f4bb b840 adba 7275 6e3d 64b4 acbd
000003a0: 27ef 013e 9448 15be fd1c c1bc ce23 4fbc
000003b0: 8ff1 cb3c e78b 8fbd a3a3 debc 13e5 c83b
000003c0: f3b8 00bb 5b7d 543d b00a 2ebc 5224 a43c
000003d0: 2cbc f63b 33ba b33b a3e0 223c 7084 e53c
000003e0: 092c 59bd 1da7 873d 2026 b83b 2ed3 1d3b
000003f0: 18e1 17be b513 54bd 43b9 aeb8 4450 81bd

conv3.bias f4 [64]
0.006101415 -0.0017705483 0.05011934 -0.020899566 -0.001141103 0.057849403 0.0009589685 0.0339606
0.034587823 0.016067676 0.0050420347 0.015849449 0.022967365 0.034315705 0.046157766 0.030185184
0.034869835 -0.025232073 -0.024434209 0.020888075 0.048580036 0.04668536 0.015149035 0.0004958015
-0.012635611 0.05302216 -0.014103955 0.0007330367 0.020840257 0.07632309 0.04216867 -0.13660496
0.024052352 -0.077555634 -0.00056975783 0.005071152 0.023644574 0.0003904546 0.026600795 -0.06099131
-0.20010847 0.08645393 0.027631233 0.028057648 0.014297632 0.028492197 0.036248125 -0.012539401
-0.0016653144 -0.0007409177 0.01196819 -0.011236617 0.0059896708 0.02442268 -0.15599442 0.0093630245
0.044949412 0.011741582 0.014164882 0.013705034 0.012413849 0.038034987 0.0006851808 0.06861028
00000000: 61ee c73b be11 e8ba f049 4d3d 9135 abbc
00000010: 1091 95ba 7ff3 6c3d 4963 7b3a 451a 0b3d
00000020: f6ab 0d3d 5ca0 833c a737 a53b b4d6 813c
00000030: 0e26 bc3c a08e 0c3d ed0f 3d3d eb46 f73c
00000040: acd3 0e3d 7eb3 cebc 402a c8bc 781d ab3c
00000050: dcfb 463d 2639 3f3d a833 783c adf8 013a
00000060: 9805 4fbc c42d 593d 4614 67bc 4329 403a
00000070: 30b9 aa3c 484f 9c3d 0eb9 2c3d 2ce2 0bbe
00000080: 7009 c53c 7dd5 9ebd cd5b 15ba e82b a63b
00000090: 44b2 c13c eeb5 cc39 e9e9 d93c 06d2 79bd
000000a0: 3ce9 4cbe c20e b13d e55a e23c 27d9 e53c
000000b0: 9d40 6a3c 7868 e93c ea78 143d 0f72 4dbc
000000c0: ae46 daba 253a 42ba 3a16 443c ca19 38bc
000000d0: 0045 c43b 1212 c83c 00bd 1fbe 5f67 193c
000000e0: e01c 383d c45f 403c d213 683c 148b 603c
000000f0: 7563 4b3c 93ca 1b3d b59d 333a 8c83 8c3d

fc1.weight f4 [128, 64]
0.0037541806 0.041239258 0.096096285 -0.1394432 -0.0009909461 0.012186312 0.0030311218 0.060321525
0.1277198 -0.011730763 0.0971836 0.03263983 -0.070029244 0.03799629 0.054434597 -0.05223476
0.14368707 0.0670847 -0.12262617 0.06735703 -0.114343174 0.13199529 0.09142175 0.002807445
0.08569604 0.0469922 -0.10691103 -0.0020996 0.062075708 -0.07671918 -0.045049034 0.088342644
0.032946307 0.29236007 0.21141449 0.029619725 0.08127698 -0.0017706556 0.006206777 0.037554696
-0.00079006836 0.09206772 -0.020632336 -0.0631232 0.05649224 -0.008000419 -0.051777422 -0.01592196
-0.0034141876 0.014423961 0.022809284 0.10218566 -0.042623155 0.0020770195 -0.16877873 -0.12480575
0.1287292 0.091590226 0.03931214 0.0023405538 0.1395421 0.002061872 -0.0035726766 -0.028543768
-0.01626543 -0.027946366 0.051412724 -0.034914967 -0.0017526601 -0.0031961293 0.009277806 -0.14841205
-0.019136349 -0.09312945 0.049475215 -0.032563206 -0.006091492 0.063379675 -0.08265073 -0.07722129
-0.0256596 -0.0038997366 -0.12920395 -0.030124571 0.14623949 0.10318026 -0.0038190703 -0.0011981789
0.05647615 0.075726055 0.26346487 0.0006918498 -0.1718924 0.12976009 0.0042944304 0.13303396
-0.043364413 0.14814799 -0.1401474 -0.07430493 -0.115704454 0.0019330092 0.015793955 0.21139623
0.14623278 0.034673914 0.06266029 -0.041113425 -0.24311484 0.11626639 0.00873338 -0.09025784
-0.009410559 -0.1610172 0.013093904 0.123737 -0.0806293 0.013385484 0.22445685 0.052748658
-0.12388676 -0.057354342 0.036225747 0.059425525 0.08257172 0.03481688 0.0013154513 -0.027096868
0.008384027 0.10088403 0.04582287 0.01243901 0.0021112317 -0.010107092 0.0013596136 -0.13552915
0.1536004 0.110104315 -0.02933903 -0.06565374 0.09690029 -0.096527696 -0.054021355 -0.120252274
-0.05682054 -0.049187787 -0.07669862 0.016619937 -0.015611467 0.080117024 -0.06076789 -0.00022733673
0.20244533 -0.010387149 0.13497594 -0.0034003432 -0.10961572 -0.036986336 0.008228022 0.0999314
-0.03618297 0.26881197 -0.10735518 -0.05711803 -0.108097486 -0.003319689 0.080767155 0.25295305
0.1684934 -0.051874302 -0.00030591554 -0.05669589 -0.14655228 -0.03214429 -0.011454662 -0.0809788
-0.004025327 -0.014655611 -0.05215793 0.16221811 -0.11135412 -0.016936181 0.10073739 -0.028107809
-0.09514757 -0.075063385 -0.06137295 -0.05421836 0.07643384 -0.007546056 -0.0031740512 0.034547277
-0.005999925 -0.021639995 -0.046430778 -0.06390443 0.00017833078 0.024114707 -0.003135438 0.027378205
-0.10093557 -0.09108703 0.14435782 0.123117805 -0.007450393 -0.08426239 -0.09463507 -0.03336537
-0.14615235 0.0031928762 -0.06674936 -0.007141594 -0.10936995 0.044725932 -0.0569172 -0.0071138903
0.04397051 0.056992736 -0.33171606 -0.002495399 -0.09783329 -0.17685807 -0.045832258 0.13073204
-0.039127603 0.33516634 -0.072931565 -0.052665066 0.094853505 -0.0033854083 0.10449822 -0.15823528
0.054385666 -0.0052422183 0.030738981 0.01375197 -0.257024 0.07853169 0.029328542 -0.069542386
0.0020792827 -0.022318732 -0.02833282 0.2649203 -0.06587031 -0.047348104 0.040649798 0.042799957
0.11435512 0.25122344 0.017884236 -0.011899877 -0.026631437 -0.0045545422 -0.0027688397 -0.022173347
00000000: b308 763b 7fea 283d 21ce c43d 33ca 0ebe
00000010: a2e2 81ba 19a9 473c c9a5 463b b413 773d
00000020: fbc8 023e 6332 40bc 3208 c73d 58b1 053d
00000030: 7e6b 8fbd ffa1 1b3d d0f6 5e3d 1ef4 55bd
00000040: b422 133e b463 893d 6e23 fbbd 7cf2 893d
00000050: c12c eabd c629 073e 543b bb3d 1cfd 373b
00000060: 6881 af3d e57a 403d 2cf4 dabd 7199 09bb
00000070: 1943 7e3d f21e 9dbd 5685 38bd fdec b43d
00000080: b5f2 063d 38b0 953e 0a7d 583e 11a5 f23c
00000090: 8c74 a63d 5815 e8ba 3862 cb3b f4d2 193d
000000a0: 971c 4fba 008e bc3d 2505 a9bc bc46 81bd
000000b0: 6864 673d 3014 03bc 9014 54bd c56e 82bc
000000c0: 90c0 5fbb 7a52 6c3c 89da ba3c b746 d13d
000000d0: 9e95 2ebd 9b1e 083b 55d4 2cbe 289a ffbd
000000e0: 96d1 033e a893 bb3d c405 213d fa63 193b
000000f0: 20e4 0e3e 7920 073b 9123 6abb 9fd4 e9bc
00000100: 143f 85bc c7ef e4bc 2696 523d ff02 0fbd
00000110: 84b9 e5ba 2776 51bb f001 183c 54f9 17be
00000120: d5c3 9cbc a7ba bebd 86a6 4a3d ff60 05bd
00000130: 239b c7bb 34cd 813d c944 a9bd 3226 9ebd
00000140: 1534 d2bc b992 7fbb 0a4e 04be cec7 f6bc
00000150: cebf 153e 2c50 d33d 5e49 7abb 360c 9dba
00000160: 8953 673d 4316 9b3d dee4 863e 415d 353a
00000170: 9004 30be d4df 043e 4bb8 8c3b 0e3a 083e
00000180: e29e 31bd 1bb4 173e cd82 0fbe 2f2d 98bd
00000190: 75f6 ecbd 075d fd3a 5362 813c 4178 583e
000001a0: 0cbe 153e 3c06 0e3d 0a54 803d 8d66 28bd
000001b0: 19f3 78be 131d ee3d 7316 0f3c 1ad9 b8bd
000001c0: bf2e 1abc b1e1 24be d087 563c d369 fd3d
000001d0: f920 a5bd ca4e 5b3c 04d8 653e fa0e 583d
000001e0: 57b8 fdbd 63ec 6abd 7361 143d 2e68 733d
000001f0: 5d1b a93d 259c 0e3d 396b ac3a 40fa ddbc
00000200: 285d 093c 499c ce3d c3b0 3b3d fdcc 4b3c
00000210: 975c 0a3b 3798 25bc 1035 b23a 27c8 0abe
00000220: 6c49 1d3e 5f7e e13d 6858 f0bc 7875 86bd
00000230: a973 c63d 50b0 c5bd 7f45 5dbd d346 f6bd
00000240: a8bc 68bd 2279 49bd 2b14 9dbd 8926 883c
00000250: 3dc7 7fbc 6514 a43d c0e7 78bd 3d61 6eb9
00000260: d44d 4f3e dc2e 2abc 2237 0a3e 4bd8 5ebb
00000270: 357e e0bd fc7e 17bd d3ce 063c d5a8 cc3d
00000280: 9834 14bd b9a1 893e 08dd dbbd 98f4 69bd
00000290: 3762 ddbd 248f 59bb 4069 a53d 1083 813e
000002a0: 8989 2c3e 267a 54bd 4a63 a0b9 f339 68bd
000002b0: cd11 16be bba9 03bd 56ac 3bbc 37d8 a5bd
000002c0: e4e6 83bb 161e 70bc 8ea3 55bd 811c 263e
000002d0: a10d e4bd bfbd 8abc 684f ce3d 5942 e6bc
000002e0: bbdc c2bd d5ba 99bd 3462 7bbd 1214 5ebd
000002f0: 5889 9c3d e844 f7bb be03 50bb 7281 0d3d
00000300: 059b c4bb 5c46 b1bc 332e 3ebd 53e0 82bd
00000310: 4efe 3a39 358c c53c ec7b 4dbb 4248 e03c
00000320: 4fb7 cebd d68b babd 89d2 133e 3025 fc3d
00000330: 6d22 f4bb c391 acbd 08d0 c1bd 20aa 08bd
00000340: f6a8 15be 933f 513b e3b3 88bd 0804 eabb
00000350: 5afd dfbd 8a32 373d 0322 69bd a31b e9bb
00000360: 6c1a 343d 3771 693d b0d6 a9be d989 23bb
00000370: d25c c8bd 481a 35be 9bba 3bbd 9fde 053e
00000380: 4444 20bd ec9a ab3e 255d 95bd 53b7 57bd
00000390: 8e42 c23d badd 5dbb 2a03 d63d 6e08 22be
000003a0: 81c3 5e3d eac6 abbb 51d0 fb3c f14f 613c
000003b0: a698 83be 39d5 a03d 6942 f03c 3d6c 8ebd
000003c0: 9344 083b c6d5 b6bc 3b1a e8bc a2a3 873e
000003d0: 03e7 86bd 16f0 41bd 6780 263d 024f 2f3d
000003e0: 0433 ea3d 5ca0 803e f681 923c b4f7 42bc
000003f0: 2c2a dabc 453e 95bb 6c75 35bb e1a4 b5bc
